{
  "transform_params" : {
    "image" : {
      "bias_a" : 0,
      "bias_g" : -116.77899932861328,
      "bias_r" : -123.68000030517578,
      "bias_b" : -103.93900299072266,
      "center_mean" : 0,
      "is_network_bgr" : 1,
      "scale" : 1
    }
  },
  "properties" : {

  },
  "storage" : "model.espresso.weights",
  "format_version" : 200,
  "layers" : [
    {
      "pad_value" : 0,
      "top" : "zeropadding2d_1_output",
      "pad_pad_mode" : 0,
      "pad_t" : 3,
      "pad_r" : 3,
      "pad_b" : 3,
      "type" : "general_padding",
      "pad_fill_mode" : 0,
      "bottom" : "image",
      "pad_l" : 3,
      "name" : "zeropadding2d_1",
      "weights" : {

      }
    },
    {
      "alpha" : 0.32160618901252747,
      "bottom" : "zeropadding2d_1_output",
      "operation" : 3,
      "weights" : {

      },
      "fused_relu" : 0,
      "top" : "zeropadding2d_1_output__fix__underflow___",
      "type" : "elementwise",
      "name" : "conv1__fix__underflow___",
      "beta" : 0
    },
    {
      "pad_r" : 0,
      "fused_relu" : 1,
      "fused_tanh" : 0,
      "pad_fill_mode" : 0,
      "pad_b" : 0,
      "pad_l" : 0,
      "top" : "activation_1_output",
      "blob_weights" : 3,
      "K" : 3,
      "blob_biases" : 1,
      "stride_x" : 2,
      "name" : "conv1",
      "has_batch_norm" : 0,
      "type" : "convolution",
      "n_groups" : 1,
      "pad_t" : 0,
      "stride_y" : 2,
      "has_biases" : 1,
      "C" : 64,
      "bottom" : "zeropadding2d_1_output__fix__underflow___",
      "weights" : {

      },
      "Nx" : 7,
      "pad_mode" : 0,
      "pad_value" : 0,
      "Ny" : 7,
      "n_parallel" : 1
    },
    {
      "pad_value" : 0,
      "average_count_exclude_padding" : 1,
      "top_shape_style" : 0,
      "avg_or_max" : 1,
      "stride_x" : 2,
      "pad_mode" : 2,
      "stride_y" : 2,
      "pad_t" : 0,
      "weights" : {

      },
      "size_y" : 3,
      "type" : "pool",
      "pad_r" : 0,
      "pad_b" : 0,
      "size_x" : 3,
      "pad_fill_mode" : 0,
      "bottom" : "activation_1_output",
      "pad_l" : 0,
      "name" : "maxpooling2d_1",
      "top" : "maxpooling2d_1_output"
    },
    {
      "pad_r" : 0,
      "fused_relu" : 1,
      "fused_tanh" : 0,
      "pad_fill_mode" : 0,
      "pad_b" : 0,
      "pad_l" : 0,
      "top" : "activation_2_output",
      "blob_weights" : 7,
      "K" : 64,
      "blob_biases" : 5,
      "name" : "res2a_branch2a",
      "has_batch_norm" : 0,
      "type" : "convolution",
      "n_groups" : 1,
      "pad_t" : 0,
      "has_biases" : 1,
      "C" : 64,
      "bottom" : "maxpooling2d_1_output",
      "weights" : {

      },
      "pad_mode" : 0,
      "Nx" : 1,
      "pad_value" : 0,
      "Ny" : 1,
      "n_parallel" : 1
    },
    {
      "pad_r" : 0,
      "fused_relu" : 1,
      "fused_tanh" : 0,
      "pad_fill_mode" : 0,
      "pad_b" : 0,
      "pad_l" : 0,
      "top" : "activation_3_output",
      "blob_weights" : 11,
      "K" : 64,
      "blob_biases" : 9,
      "name" : "res2a_branch2b",
      "has_batch_norm" : 0,
      "type" : "convolution",
      "n_groups" : 1,
      "pad_t" : 0,
      "has_biases" : 1,
      "C" : 64,
      "bottom" : "activation_2_output",
      "weights" : {

      },
      "pad_mode" : 1,
      "Nx" : 3,
      "pad_value" : 0,
      "Ny" : 3,
      "n_parallel" : 1
    },
    {
      "pad_r" : 0,
      "fused_relu" : 0,
      "fused_tanh" : 0,
      "pad_fill_mode" : 0,
      "pad_b" : 0,
      "pad_l" : 0,
      "top" : "bn2a_branch2c_output",
      "blob_weights" : 15,
      "K" : 64,
      "blob_biases" : 13,
      "name" : "res2a_branch2c",
      "has_batch_norm" : 0,
      "type" : "convolution",
      "n_groups" : 1,
      "pad_t" : 0,
      "has_biases" : 1,
      "C" : 256,
      "bottom" : "activation_3_output",
      "weights" : {

      },
      "pad_mode" : 0,
      "Nx" : 1,
      "pad_value" : 0,
      "Ny" : 1,
      "n_parallel" : 1
    },
    {
      "pad_r" : 0,
      "fused_relu" : 0,
      "fused_tanh" : 0,
      "pad_fill_mode" : 0,
      "pad_b" : 0,
      "pad_l" : 0,
      "top" : "bn2a_branch1_output",
      "blob_weights" : 19,
      "K" : 64,
      "blob_biases" : 17,
      "name" : "res2a_branch1",
      "has_batch_norm" : 0,
      "type" : "convolution",
      "n_groups" : 1,
      "pad_t" : 0,
      "has_biases" : 1,
      "C" : 256,
      "bottom" : "maxpooling2d_1_output",
      "weights" : {

      },
      "pad_mode" : 0,
      "Nx" : 1,
      "pad_value" : 0,
      "Ny" : 1,
      "n_parallel" : 1
    },
    {
      "alpha" : 1,
      "bottom" : "bn2a_branch2c_output,bn2a_branch1_output",
      "operation" : 0,
      "weights" : {

      },
      "fused_relu" : 0,
      "top" : "merge_1_output",
      "type" : "elementwise",
      "name" : "merge_1",
      "beta" : 0
    },
    {
      "mode" : 0,
      "weights" : {

      },
      "top" : "activation_4_output",
      "type" : "activation",
      "name" : "activation_4",
      "bottom" : "merge_1_output"
    },
    {
      "pad_r" : 0,
      "fused_relu" : 1,
      "fused_tanh" : 0,
      "pad_fill_mode" : 0,
      "pad_b" : 0,
      "pad_l" : 0,
      "top" : "activation_5_output",
      "blob_weights" : 23,
      "K" : 256,
      "blob_biases" : 21,
      "name" : "res2b_branch2a",
      "has_batch_norm" : 0,
      "type" : "convolution",
      "n_groups" : 1,
      "pad_t" : 0,
      "has_biases" : 1,
      "C" : 64,
      "bottom" : "activation_4_output",
      "weights" : {

      },
      "pad_mode" : 0,
      "Nx" : 1,
      "pad_value" : 0,
      "Ny" : 1,
      "n_parallel" : 1
    },
    {
      "pad_r" : 0,
      "fused_relu" : 1,
      "fused_tanh" : 0,
      "pad_fill_mode" : 0,
      "pad_b" : 0,
      "pad_l" : 0,
      "top" : "activation_6_output",
      "blob_weights" : 27,
      "K" : 64,
      "blob_biases" : 25,
      "name" : "res2b_branch2b",
      "has_batch_norm" : 0,
      "type" : "convolution",
      "n_groups" : 1,
      "pad_t" : 0,
      "has_biases" : 1,
      "C" : 64,
      "bottom" : "activation_5_output",
      "weights" : {

      },
      "pad_mode" : 1,
      "Nx" : 3,
      "pad_value" : 0,
      "Ny" : 3,
      "n_parallel" : 1
    },
    {
      "pad_r" : 0,
      "fused_relu" : 0,
      "fused_tanh" : 0,
      "pad_fill_mode" : 0,
      "pad_b" : 0,
      "pad_l" : 0,
      "top" : "bn2b_branch2c_output",
      "blob_weights" : 31,
      "K" : 64,
      "blob_biases" : 29,
      "name" : "res2b_branch2c",
      "has_batch_norm" : 0,
      "type" : "convolution",
      "n_groups" : 1,
      "pad_t" : 0,
      "has_biases" : 1,
      "C" : 256,
      "bottom" : "activation_6_output",
      "weights" : {

      },
      "pad_mode" : 0,
      "Nx" : 1,
      "pad_value" : 0,
      "Ny" : 1,
      "n_parallel" : 1
    },
    {
      "alpha" : 1,
      "bottom" : "bn2b_branch2c_output,activation_4_output",
      "operation" : 0,
      "weights" : {

      },
      "fused_relu" : 0,
      "top" : "merge_2_output",
      "type" : "elementwise",
      "name" : "merge_2",
      "beta" : 0
    },
    {
      "mode" : 0,
      "weights" : {

      },
      "top" : "activation_7_output",
      "type" : "activation",
      "name" : "activation_7",
      "bottom" : "merge_2_output"
    },
    {
      "pad_r" : 0,
      "fused_relu" : 1,
      "fused_tanh" : 0,
      "pad_fill_mode" : 0,
      "pad_b" : 0,
      "pad_l" : 0,
      "top" : "activation_8_output",
      "blob_weights" : 35,
      "K" : 256,
      "blob_biases" : 33,
      "name" : "res2c_branch2a",
      "has_batch_norm" : 0,
      "type" : "convolution",
      "n_groups" : 1,
      "pad_t" : 0,
      "has_biases" : 1,
      "C" : 64,
      "bottom" : "activation_7_output",
      "weights" : {

      },
      "pad_mode" : 0,
      "Nx" : 1,
      "pad_value" : 0,
      "Ny" : 1,
      "n_parallel" : 1
    },
    {
      "pad_r" : 0,
      "fused_relu" : 1,
      "fused_tanh" : 0,
      "pad_fill_mode" : 0,
      "pad_b" : 0,
      "pad_l" : 0,
      "top" : "activation_9_output",
      "blob_weights" : 39,
      "K" : 64,
      "blob_biases" : 37,
      "name" : "res2c_branch2b",
      "has_batch_norm" : 0,
      "type" : "convolution",
      "n_groups" : 1,
      "pad_t" : 0,
      "has_biases" : 1,
      "C" : 64,
      "bottom" : "activation_8_output",
      "weights" : {

      },
      "pad_mode" : 1,
      "Nx" : 3,
      "pad_value" : 0,
      "Ny" : 3,
      "n_parallel" : 1
    },
    {
      "pad_r" : 0,
      "fused_relu" : 0,
      "fused_tanh" : 0,
      "pad_fill_mode" : 0,
      "pad_b" : 0,
      "pad_l" : 0,
      "top" : "bn2c_branch2c_output",
      "blob_weights" : 43,
      "K" : 64,
      "blob_biases" : 41,
      "name" : "res2c_branch2c",
      "has_batch_norm" : 0,
      "type" : "convolution",
      "n_groups" : 1,
      "pad_t" : 0,
      "has_biases" : 1,
      "C" : 256,
      "bottom" : "activation_9_output",
      "weights" : {

      },
      "pad_mode" : 0,
      "Nx" : 1,
      "pad_value" : 0,
      "Ny" : 1,
      "n_parallel" : 1
    },
    {
      "alpha" : 1,
      "bottom" : "bn2c_branch2c_output,activation_7_output",
      "operation" : 0,
      "weights" : {

      },
      "fused_relu" : 0,
      "top" : "merge_3_output",
      "type" : "elementwise",
      "name" : "merge_3",
      "beta" : 0
    },
    {
      "mode" : 0,
      "weights" : {

      },
      "top" : "activation_10_output",
      "type" : "activation",
      "name" : "activation_10",
      "bottom" : "merge_3_output"
    },
    {
      "pad_r" : 0,
      "fused_relu" : 1,
      "fused_tanh" : 0,
      "pad_fill_mode" : 0,
      "pad_b" : 0,
      "pad_l" : 0,
      "top" : "activation_11_output",
      "blob_weights" : 47,
      "K" : 256,
      "blob_biases" : 45,
      "stride_x" : 2,
      "name" : "res3a_branch2a",
      "has_batch_norm" : 0,
      "type" : "convolution",
      "n_groups" : 1,
      "pad_t" : 0,
      "stride_y" : 2,
      "has_biases" : 1,
      "C" : 128,
      "bottom" : "activation_10_output",
      "weights" : {

      },
      "Nx" : 1,
      "pad_mode" : 0,
      "pad_value" : 0,
      "Ny" : 1,
      "n_parallel" : 1
    },
    {
      "pad_r" : 0,
      "fused_relu" : 1,
      "fused_tanh" : 0,
      "pad_fill_mode" : 0,
      "pad_b" : 0,
      "pad_l" : 0,
      "top" : "activation_12_output",
      "blob_weights" : 51,
      "K" : 128,
      "blob_biases" : 49,
      "name" : "res3a_branch2b",
      "has_batch_norm" : 0,
      "type" : "convolution",
      "n_groups" : 1,
      "pad_t" : 0,
      "has_biases" : 1,
      "C" : 128,
      "bottom" : "activation_11_output",
      "weights" : {

      },
      "pad_mode" : 1,
      "Nx" : 3,
      "pad_value" : 0,
      "Ny" : 3,
      "n_parallel" : 1
    },
    {
      "pad_r" : 0,
      "fused_relu" : 0,
      "fused_tanh" : 0,
      "pad_fill_mode" : 0,
      "pad_b" : 0,
      "pad_l" : 0,
      "top" : "bn3a_branch2c_output",
      "blob_weights" : 55,
      "K" : 128,
      "blob_biases" : 53,
      "name" : "res3a_branch2c",
      "has_batch_norm" : 0,
      "type" : "convolution",
      "n_groups" : 1,
      "pad_t" : 0,
      "has_biases" : 1,
      "C" : 512,
      "bottom" : "activation_12_output",
      "weights" : {

      },
      "pad_mode" : 0,
      "Nx" : 1,
      "pad_value" : 0,
      "Ny" : 1,
      "n_parallel" : 1
    },
    {
      "pad_r" : 0,
      "fused_relu" : 0,
      "fused_tanh" : 0,
      "pad_fill_mode" : 0,
      "pad_b" : 0,
      "pad_l" : 0,
      "top" : "bn3a_branch1_output",
      "blob_weights" : 59,
      "K" : 256,
      "blob_biases" : 57,
      "stride_x" : 2,
      "name" : "res3a_branch1",
      "has_batch_norm" : 0,
      "type" : "convolution",
      "n_groups" : 1,
      "pad_t" : 0,
      "stride_y" : 2,
      "has_biases" : 1,
      "C" : 512,
      "bottom" : "activation_10_output",
      "weights" : {

      },
      "Nx" : 1,
      "pad_mode" : 0,
      "pad_value" : 0,
      "Ny" : 1,
      "n_parallel" : 1
    },
    {
      "alpha" : 1,
      "bottom" : "bn3a_branch2c_output,bn3a_branch1_output",
      "operation" : 0,
      "weights" : {

      },
      "fused_relu" : 0,
      "top" : "merge_4_output",
      "type" : "elementwise",
      "name" : "merge_4",
      "beta" : 0
    },
    {
      "mode" : 0,
      "weights" : {

      },
      "top" : "activation_13_output",
      "type" : "activation",
      "name" : "activation_13",
      "bottom" : "merge_4_output"
    },
    {
      "pad_r" : 0,
      "fused_relu" : 1,
      "fused_tanh" : 0,
      "pad_fill_mode" : 0,
      "pad_b" : 0,
      "pad_l" : 0,
      "top" : "activation_14_output",
      "blob_weights" : 63,
      "K" : 512,
      "blob_biases" : 61,
      "name" : "res3b_branch2a",
      "has_batch_norm" : 0,
      "type" : "convolution",
      "n_groups" : 1,
      "pad_t" : 0,
      "has_biases" : 1,
      "C" : 128,
      "bottom" : "activation_13_output",
      "weights" : {

      },
      "pad_mode" : 0,
      "Nx" : 1,
      "pad_value" : 0,
      "Ny" : 1,
      "n_parallel" : 1
    },
    {
      "pad_r" : 0,
      "fused_relu" : 1,
      "fused_tanh" : 0,
      "pad_fill_mode" : 0,
      "pad_b" : 0,
      "pad_l" : 0,
      "top" : "activation_15_output",
      "blob_weights" : 67,
      "K" : 128,
      "blob_biases" : 65,
      "name" : "res3b_branch2b",
      "has_batch_norm" : 0,
      "type" : "convolution",
      "n_groups" : 1,
      "pad_t" : 0,
      "has_biases" : 1,
      "C" : 128,
      "bottom" : "activation_14_output",
      "weights" : {

      },
      "pad_mode" : 1,
      "Nx" : 3,
      "pad_value" : 0,
      "Ny" : 3,
      "n_parallel" : 1
    },
    {
      "pad_r" : 0,
      "fused_relu" : 0,
      "fused_tanh" : 0,
      "pad_fill_mode" : 0,
      "pad_b" : 0,
      "pad_l" : 0,
      "top" : "bn3b_branch2c_output",
      "blob_weights" : 71,
      "K" : 128,
      "blob_biases" : 69,
      "name" : "res3b_branch2c",
      "has_batch_norm" : 0,
      "type" : "convolution",
      "n_groups" : 1,
      "pad_t" : 0,
      "has_biases" : 1,
      "C" : 512,
      "bottom" : "activation_15_output",
      "weights" : {

      },
      "pad_mode" : 0,
      "Nx" : 1,
      "pad_value" : 0,
      "Ny" : 1,
      "n_parallel" : 1
    },
    {
      "alpha" : 1,
      "bottom" : "bn3b_branch2c_output,activation_13_output",
      "operation" : 0,
      "weights" : {

      },
      "fused_relu" : 0,
      "top" : "merge_5_output",
      "type" : "elementwise",
      "name" : "merge_5",
      "beta" : 0
    },
    {
      "mode" : 0,
      "weights" : {

      },
      "top" : "activation_16_output",
      "type" : "activation",
      "name" : "activation_16",
      "bottom" : "merge_5_output"
    },
    {
      "pad_r" : 0,
      "fused_relu" : 1,
      "fused_tanh" : 0,
      "pad_fill_mode" : 0,
      "pad_b" : 0,
      "pad_l" : 0,
      "top" : "activation_17_output",
      "blob_weights" : 75,
      "K" : 512,
      "blob_biases" : 73,
      "name" : "res3c_branch2a",
      "has_batch_norm" : 0,
      "type" : "convolution",
      "n_groups" : 1,
      "pad_t" : 0,
      "has_biases" : 1,
      "C" : 128,
      "bottom" : "activation_16_output",
      "weights" : {

      },
      "pad_mode" : 0,
      "Nx" : 1,
      "pad_value" : 0,
      "Ny" : 1,
      "n_parallel" : 1
    },
    {
      "pad_r" : 0,
      "fused_relu" : 1,
      "fused_tanh" : 0,
      "pad_fill_mode" : 0,
      "pad_b" : 0,
      "pad_l" : 0,
      "top" : "activation_18_output",
      "blob_weights" : 79,
      "K" : 128,
      "blob_biases" : 77,
      "name" : "res3c_branch2b",
      "has_batch_norm" : 0,
      "type" : "convolution",
      "n_groups" : 1,
      "pad_t" : 0,
      "has_biases" : 1,
      "C" : 128,
      "bottom" : "activation_17_output",
      "weights" : {

      },
      "pad_mode" : 1,
      "Nx" : 3,
      "pad_value" : 0,
      "Ny" : 3,
      "n_parallel" : 1
    },
    {
      "pad_r" : 0,
      "fused_relu" : 0,
      "fused_tanh" : 0,
      "pad_fill_mode" : 0,
      "pad_b" : 0,
      "pad_l" : 0,
      "top" : "bn3c_branch2c_output",
      "blob_weights" : 83,
      "K" : 128,
      "blob_biases" : 81,
      "name" : "res3c_branch2c",
      "has_batch_norm" : 0,
      "type" : "convolution",
      "n_groups" : 1,
      "pad_t" : 0,
      "has_biases" : 1,
      "C" : 512,
      "bottom" : "activation_18_output",
      "weights" : {

      },
      "pad_mode" : 0,
      "Nx" : 1,
      "pad_value" : 0,
      "Ny" : 1,
      "n_parallel" : 1
    },
    {
      "alpha" : 1,
      "bottom" : "bn3c_branch2c_output,activation_16_output",
      "operation" : 0,
      "weights" : {

      },
      "fused_relu" : 0,
      "top" : "merge_6_output",
      "type" : "elementwise",
      "name" : "merge_6",
      "beta" : 0
    },
    {
      "mode" : 0,
      "weights" : {

      },
      "top" : "activation_19_output",
      "type" : "activation",
      "name" : "activation_19",
      "bottom" : "merge_6_output"
    },
    {
      "pad_r" : 0,
      "fused_relu" : 1,
      "fused_tanh" : 0,
      "pad_fill_mode" : 0,
      "pad_b" : 0,
      "pad_l" : 0,
      "top" : "activation_20_output",
      "blob_weights" : 87,
      "K" : 512,
      "blob_biases" : 85,
      "name" : "res3d_branch2a",
      "has_batch_norm" : 0,
      "type" : "convolution",
      "n_groups" : 1,
      "pad_t" : 0,
      "has_biases" : 1,
      "C" : 128,
      "bottom" : "activation_19_output",
      "weights" : {

      },
      "pad_mode" : 0,
      "Nx" : 1,
      "pad_value" : 0,
      "Ny" : 1,
      "n_parallel" : 1
    },
    {
      "pad_r" : 0,
      "fused_relu" : 1,
      "fused_tanh" : 0,
      "pad_fill_mode" : 0,
      "pad_b" : 0,
      "pad_l" : 0,
      "top" : "activation_21_output",
      "blob_weights" : 91,
      "K" : 128,
      "blob_biases" : 89,
      "name" : "res3d_branch2b",
      "has_batch_norm" : 0,
      "type" : "convolution",
      "n_groups" : 1,
      "pad_t" : 0,
      "has_biases" : 1,
      "C" : 128,
      "bottom" : "activation_20_output",
      "weights" : {

      },
      "pad_mode" : 1,
      "Nx" : 3,
      "pad_value" : 0,
      "Ny" : 3,
      "n_parallel" : 1
    },
    {
      "pad_r" : 0,
      "fused_relu" : 0,
      "fused_tanh" : 0,
      "pad_fill_mode" : 0,
      "pad_b" : 0,
      "pad_l" : 0,
      "top" : "bn3d_branch2c_output",
      "blob_weights" : 95,
      "K" : 128,
      "blob_biases" : 93,
      "name" : "res3d_branch2c",
      "has_batch_norm" : 0,
      "type" : "convolution",
      "n_groups" : 1,
      "pad_t" : 0,
      "has_biases" : 1,
      "C" : 512,
      "bottom" : "activation_21_output",
      "weights" : {

      },
      "pad_mode" : 0,
      "Nx" : 1,
      "pad_value" : 0,
      "Ny" : 1,
      "n_parallel" : 1
    },
    {
      "alpha" : 1,
      "bottom" : "bn3d_branch2c_output,activation_19_output",
      "operation" : 0,
      "weights" : {

      },
      "fused_relu" : 0,
      "top" : "merge_7_output",
      "type" : "elementwise",
      "name" : "merge_7",
      "beta" : 0
    },
    {
      "mode" : 0,
      "weights" : {

      },
      "top" : "activation_22_output",
      "type" : "activation",
      "name" : "activation_22",
      "bottom" : "merge_7_output"
    },
    {
      "pad_r" : 0,
      "fused_relu" : 1,
      "fused_tanh" : 0,
      "pad_fill_mode" : 0,
      "pad_b" : 0,
      "pad_l" : 0,
      "top" : "activation_23_output",
      "blob_weights" : 99,
      "K" : 512,
      "blob_biases" : 97,
      "stride_x" : 2,
      "name" : "res4a_branch2a",
      "has_batch_norm" : 0,
      "type" : "convolution",
      "n_groups" : 1,
      "pad_t" : 0,
      "stride_y" : 2,
      "has_biases" : 1,
      "C" : 256,
      "bottom" : "activation_22_output",
      "weights" : {

      },
      "Nx" : 1,
      "pad_mode" : 0,
      "pad_value" : 0,
      "Ny" : 1,
      "n_parallel" : 1
    },
    {
      "pad_r" : 0,
      "fused_relu" : 1,
      "fused_tanh" : 0,
      "pad_fill_mode" : 0,
      "pad_b" : 0,
      "pad_l" : 0,
      "top" : "activation_24_output",
      "blob_weights" : 103,
      "K" : 256,
      "blob_biases" : 101,
      "name" : "res4a_branch2b",
      "has_batch_norm" : 0,
      "type" : "convolution",
      "n_groups" : 1,
      "pad_t" : 0,
      "has_biases" : 1,
      "C" : 256,
      "bottom" : "activation_23_output",
      "weights" : {

      },
      "pad_mode" : 1,
      "Nx" : 3,
      "pad_value" : 0,
      "Ny" : 3,
      "n_parallel" : 1
    },
    {
      "pad_r" : 0,
      "fused_relu" : 0,
      "fused_tanh" : 0,
      "pad_fill_mode" : 0,
      "pad_b" : 0,
      "pad_l" : 0,
      "top" : "bn4a_branch2c_output",
      "blob_weights" : 107,
      "K" : 256,
      "blob_biases" : 105,
      "name" : "res4a_branch2c",
      "has_batch_norm" : 0,
      "type" : "convolution",
      "n_groups" : 1,
      "pad_t" : 0,
      "has_biases" : 1,
      "C" : 1024,
      "bottom" : "activation_24_output",
      "weights" : {

      },
      "pad_mode" : 0,
      "Nx" : 1,
      "pad_value" : 0,
      "Ny" : 1,
      "n_parallel" : 1
    },
    {
      "pad_r" : 0,
      "fused_relu" : 0,
      "fused_tanh" : 0,
      "pad_fill_mode" : 0,
      "pad_b" : 0,
      "pad_l" : 0,
      "top" : "bn4a_branch1_output",
      "blob_weights" : 111,
      "K" : 512,
      "blob_biases" : 109,
      "stride_x" : 2,
      "name" : "res4a_branch1",
      "has_batch_norm" : 0,
      "type" : "convolution",
      "n_groups" : 1,
      "pad_t" : 0,
      "stride_y" : 2,
      "has_biases" : 1,
      "C" : 1024,
      "bottom" : "activation_22_output",
      "weights" : {

      },
      "Nx" : 1,
      "pad_mode" : 0,
      "pad_value" : 0,
      "Ny" : 1,
      "n_parallel" : 1
    },
    {
      "alpha" : 1,
      "bottom" : "bn4a_branch2c_output,bn4a_branch1_output",
      "operation" : 0,
      "weights" : {

      },
      "fused_relu" : 0,
      "top" : "merge_8_output",
      "type" : "elementwise",
      "name" : "merge_8",
      "beta" : 0
    },
    {
      "mode" : 0,
      "weights" : {

      },
      "top" : "activation_25_output",
      "type" : "activation",
      "name" : "activation_25",
      "bottom" : "merge_8_output"
    },
    {
      "pad_r" : 0,
      "fused_relu" : 1,
      "fused_tanh" : 0,
      "pad_fill_mode" : 0,
      "pad_b" : 0,
      "pad_l" : 0,
      "top" : "activation_26_output",
      "blob_weights" : 115,
      "K" : 1024,
      "blob_biases" : 113,
      "name" : "res4b_branch2a",
      "has_batch_norm" : 0,
      "type" : "convolution",
      "n_groups" : 1,
      "pad_t" : 0,
      "has_biases" : 1,
      "C" : 256,
      "bottom" : "activation_25_output",
      "weights" : {

      },
      "pad_mode" : 0,
      "Nx" : 1,
      "pad_value" : 0,
      "Ny" : 1,
      "n_parallel" : 1
    },
    {
      "pad_r" : 0,
      "fused_relu" : 1,
      "fused_tanh" : 0,
      "pad_fill_mode" : 0,
      "pad_b" : 0,
      "pad_l" : 0,
      "top" : "activation_27_output",
      "blob_weights" : 119,
      "K" : 256,
      "blob_biases" : 117,
      "name" : "res4b_branch2b",
      "has_batch_norm" : 0,
      "type" : "convolution",
      "n_groups" : 1,
      "pad_t" : 0,
      "has_biases" : 1,
      "C" : 256,
      "bottom" : "activation_26_output",
      "weights" : {

      },
      "pad_mode" : 1,
      "Nx" : 3,
      "pad_value" : 0,
      "Ny" : 3,
      "n_parallel" : 1
    },
    {
      "pad_r" : 0,
      "fused_relu" : 0,
      "fused_tanh" : 0,
      "pad_fill_mode" : 0,
      "pad_b" : 0,
      "pad_l" : 0,
      "top" : "bn4b_branch2c_output",
      "blob_weights" : 123,
      "K" : 256,
      "blob_biases" : 121,
      "name" : "res4b_branch2c",
      "has_batch_norm" : 0,
      "type" : "convolution",
      "n_groups" : 1,
      "pad_t" : 0,
      "has_biases" : 1,
      "C" : 1024,
      "bottom" : "activation_27_output",
      "weights" : {

      },
      "pad_mode" : 0,
      "Nx" : 1,
      "pad_value" : 0,
      "Ny" : 1,
      "n_parallel" : 1
    },
    {
      "alpha" : 1,
      "bottom" : "bn4b_branch2c_output,activation_25_output",
      "operation" : 0,
      "weights" : {

      },
      "fused_relu" : 0,
      "top" : "merge_9_output",
      "type" : "elementwise",
      "name" : "merge_9",
      "beta" : 0
    },
    {
      "mode" : 0,
      "weights" : {

      },
      "top" : "activation_28_output",
      "type" : "activation",
      "name" : "activation_28",
      "bottom" : "merge_9_output"
    },
    {
      "pad_r" : 0,
      "fused_relu" : 1,
      "fused_tanh" : 0,
      "pad_fill_mode" : 0,
      "pad_b" : 0,
      "pad_l" : 0,
      "top" : "activation_29_output",
      "blob_weights" : 127,
      "K" : 1024,
      "blob_biases" : 125,
      "name" : "res4c_branch2a",
      "has_batch_norm" : 0,
      "type" : "convolution",
      "n_groups" : 1,
      "pad_t" : 0,
      "has_biases" : 1,
      "C" : 256,
      "bottom" : "activation_28_output",
      "weights" : {

      },
      "pad_mode" : 0,
      "Nx" : 1,
      "pad_value" : 0,
      "Ny" : 1,
      "n_parallel" : 1
    },
    {
      "pad_r" : 0,
      "fused_relu" : 1,
      "fused_tanh" : 0,
      "pad_fill_mode" : 0,
      "pad_b" : 0,
      "pad_l" : 0,
      "top" : "activation_30_output",
      "blob_weights" : 131,
      "K" : 256,
      "blob_biases" : 129,
      "name" : "res4c_branch2b",
      "has_batch_norm" : 0,
      "type" : "convolution",
      "n_groups" : 1,
      "pad_t" : 0,
      "has_biases" : 1,
      "C" : 256,
      "bottom" : "activation_29_output",
      "weights" : {

      },
      "pad_mode" : 1,
      "Nx" : 3,
      "pad_value" : 0,
      "Ny" : 3,
      "n_parallel" : 1
    },
    {
      "pad_r" : 0,
      "fused_relu" : 0,
      "fused_tanh" : 0,
      "pad_fill_mode" : 0,
      "pad_b" : 0,
      "pad_l" : 0,
      "top" : "bn4c_branch2c_output",
      "blob_weights" : 135,
      "K" : 256,
      "blob_biases" : 133,
      "name" : "res4c_branch2c",
      "has_batch_norm" : 0,
      "type" : "convolution",
      "n_groups" : 1,
      "pad_t" : 0,
      "has_biases" : 1,
      "C" : 1024,
      "bottom" : "activation_30_output",
      "weights" : {

      },
      "pad_mode" : 0,
      "Nx" : 1,
      "pad_value" : 0,
      "Ny" : 1,
      "n_parallel" : 1
    },
    {
      "alpha" : 1,
      "bottom" : "bn4c_branch2c_output,activation_28_output",
      "operation" : 0,
      "weights" : {

      },
      "fused_relu" : 0,
      "top" : "merge_10_output",
      "type" : "elementwise",
      "name" : "merge_10",
      "beta" : 0
    },
    {
      "mode" : 0,
      "weights" : {

      },
      "top" : "activation_31_output",
      "type" : "activation",
      "name" : "activation_31",
      "bottom" : "merge_10_output"
    },
    {
      "pad_r" : 0,
      "fused_relu" : 1,
      "fused_tanh" : 0,
      "pad_fill_mode" : 0,
      "pad_b" : 0,
      "pad_l" : 0,
      "top" : "activation_32_output",
      "blob_weights" : 139,
      "K" : 1024,
      "blob_biases" : 137,
      "name" : "res4d_branch2a",
      "has_batch_norm" : 0,
      "type" : "convolution",
      "n_groups" : 1,
      "pad_t" : 0,
      "has_biases" : 1,
      "C" : 256,
      "bottom" : "activation_31_output",
      "weights" : {

      },
      "pad_mode" : 0,
      "Nx" : 1,
      "pad_value" : 0,
      "Ny" : 1,
      "n_parallel" : 1
    },
    {
      "pad_r" : 0,
      "fused_relu" : 1,
      "fused_tanh" : 0,
      "pad_fill_mode" : 0,
      "pad_b" : 0,
      "pad_l" : 0,
      "top" : "activation_33_output",
      "blob_weights" : 143,
      "K" : 256,
      "blob_biases" : 141,
      "name" : "res4d_branch2b",
      "has_batch_norm" : 0,
      "type" : "convolution",
      "n_groups" : 1,
      "pad_t" : 0,
      "has_biases" : 1,
      "C" : 256,
      "bottom" : "activation_32_output",
      "weights" : {

      },
      "pad_mode" : 1,
      "Nx" : 3,
      "pad_value" : 0,
      "Ny" : 3,
      "n_parallel" : 1
    },
    {
      "pad_r" : 0,
      "fused_relu" : 0,
      "fused_tanh" : 0,
      "pad_fill_mode" : 0,
      "pad_b" : 0,
      "pad_l" : 0,
      "top" : "bn4d_branch2c_output",
      "blob_weights" : 147,
      "K" : 256,
      "blob_biases" : 145,
      "name" : "res4d_branch2c",
      "has_batch_norm" : 0,
      "type" : "convolution",
      "n_groups" : 1,
      "pad_t" : 0,
      "has_biases" : 1,
      "C" : 1024,
      "bottom" : "activation_33_output",
      "weights" : {

      },
      "pad_mode" : 0,
      "Nx" : 1,
      "pad_value" : 0,
      "Ny" : 1,
      "n_parallel" : 1
    },
    {
      "alpha" : 1,
      "bottom" : "bn4d_branch2c_output,activation_31_output",
      "operation" : 0,
      "weights" : {

      },
      "fused_relu" : 0,
      "top" : "merge_11_output",
      "type" : "elementwise",
      "name" : "merge_11",
      "beta" : 0
    },
    {
      "mode" : 0,
      "weights" : {

      },
      "top" : "activation_34_output",
      "type" : "activation",
      "name" : "activation_34",
      "bottom" : "merge_11_output"
    },
    {
      "pad_r" : 0,
      "fused_relu" : 1,
      "fused_tanh" : 0,
      "pad_fill_mode" : 0,
      "pad_b" : 0,
      "pad_l" : 0,
      "top" : "activation_35_output",
      "blob_weights" : 151,
      "K" : 1024,
      "blob_biases" : 149,
      "name" : "res4e_branch2a",
      "has_batch_norm" : 0,
      "type" : "convolution",
      "n_groups" : 1,
      "pad_t" : 0,
      "has_biases" : 1,
      "C" : 256,
      "bottom" : "activation_34_output",
      "weights" : {

      },
      "pad_mode" : 0,
      "Nx" : 1,
      "pad_value" : 0,
      "Ny" : 1,
      "n_parallel" : 1
    },
    {
      "pad_r" : 0,
      "fused_relu" : 1,
      "fused_tanh" : 0,
      "pad_fill_mode" : 0,
      "pad_b" : 0,
      "pad_l" : 0,
      "top" : "activation_36_output",
      "blob_weights" : 155,
      "K" : 256,
      "blob_biases" : 153,
      "name" : "res4e_branch2b",
      "has_batch_norm" : 0,
      "type" : "convolution",
      "n_groups" : 1,
      "pad_t" : 0,
      "has_biases" : 1,
      "C" : 256,
      "bottom" : "activation_35_output",
      "weights" : {

      },
      "pad_mode" : 1,
      "Nx" : 3,
      "pad_value" : 0,
      "Ny" : 3,
      "n_parallel" : 1
    },
    {
      "pad_r" : 0,
      "fused_relu" : 0,
      "fused_tanh" : 0,
      "pad_fill_mode" : 0,
      "pad_b" : 0,
      "pad_l" : 0,
      "top" : "bn4e_branch2c_output",
      "blob_weights" : 159,
      "K" : 256,
      "blob_biases" : 157,
      "name" : "res4e_branch2c",
      "has_batch_norm" : 0,
      "type" : "convolution",
      "n_groups" : 1,
      "pad_t" : 0,
      "has_biases" : 1,
      "C" : 1024,
      "bottom" : "activation_36_output",
      "weights" : {

      },
      "pad_mode" : 0,
      "Nx" : 1,
      "pad_value" : 0,
      "Ny" : 1,
      "n_parallel" : 1
    },
    {
      "alpha" : 1,
      "bottom" : "bn4e_branch2c_output,activation_34_output",
      "operation" : 0,
      "weights" : {

      },
      "fused_relu" : 0,
      "top" : "merge_12_output",
      "type" : "elementwise",
      "name" : "merge_12",
      "beta" : 0
    },
    {
      "mode" : 0,
      "weights" : {

      },
      "top" : "activation_37_output",
      "type" : "activation",
      "name" : "activation_37",
      "bottom" : "merge_12_output"
    },
    {
      "pad_r" : 0,
      "fused_relu" : 1,
      "fused_tanh" : 0,
      "pad_fill_mode" : 0,
      "pad_b" : 0,
      "pad_l" : 0,
      "top" : "activation_38_output",
      "blob_weights" : 163,
      "K" : 1024,
      "blob_biases" : 161,
      "name" : "res4f_branch2a",
      "has_batch_norm" : 0,
      "type" : "convolution",
      "n_groups" : 1,
      "pad_t" : 0,
      "has_biases" : 1,
      "C" : 256,
      "bottom" : "activation_37_output",
      "weights" : {

      },
      "pad_mode" : 0,
      "Nx" : 1,
      "pad_value" : 0,
      "Ny" : 1,
      "n_parallel" : 1
    },
    {
      "pad_r" : 0,
      "fused_relu" : 1,
      "fused_tanh" : 0,
      "pad_fill_mode" : 0,
      "pad_b" : 0,
      "pad_l" : 0,
      "top" : "activation_39_output",
      "blob_weights" : 167,
      "K" : 256,
      "blob_biases" : 165,
      "name" : "res4f_branch2b",
      "has_batch_norm" : 0,
      "type" : "convolution",
      "n_groups" : 1,
      "pad_t" : 0,
      "has_biases" : 1,
      "C" : 256,
      "bottom" : "activation_38_output",
      "weights" : {

      },
      "pad_mode" : 1,
      "Nx" : 3,
      "pad_value" : 0,
      "Ny" : 3,
      "n_parallel" : 1
    },
    {
      "pad_r" : 0,
      "fused_relu" : 0,
      "fused_tanh" : 0,
      "pad_fill_mode" : 0,
      "pad_b" : 0,
      "pad_l" : 0,
      "top" : "bn4f_branch2c_output",
      "blob_weights" : 171,
      "K" : 256,
      "blob_biases" : 169,
      "name" : "res4f_branch2c",
      "has_batch_norm" : 0,
      "type" : "convolution",
      "n_groups" : 1,
      "pad_t" : 0,
      "has_biases" : 1,
      "C" : 1024,
      "bottom" : "activation_39_output",
      "weights" : {

      },
      "pad_mode" : 0,
      "Nx" : 1,
      "pad_value" : 0,
      "Ny" : 1,
      "n_parallel" : 1
    },
    {
      "alpha" : 1,
      "bottom" : "bn4f_branch2c_output,activation_37_output",
      "operation" : 0,
      "weights" : {

      },
      "fused_relu" : 0,
      "top" : "merge_13_output",
      "type" : "elementwise",
      "name" : "merge_13",
      "beta" : 0
    },
    {
      "mode" : 0,
      "weights" : {

      },
      "top" : "activation_40_output",
      "type" : "activation",
      "name" : "activation_40",
      "bottom" : "merge_13_output"
    },
    {
      "pad_r" : 0,
      "fused_relu" : 1,
      "fused_tanh" : 0,
      "pad_fill_mode" : 0,
      "pad_b" : 0,
      "pad_l" : 0,
      "top" : "activation_41_output",
      "blob_weights" : 175,
      "K" : 1024,
      "blob_biases" : 173,
      "stride_x" : 2,
      "name" : "res5a_branch2a",
      "has_batch_norm" : 0,
      "type" : "convolution",
      "n_groups" : 1,
      "pad_t" : 0,
      "stride_y" : 2,
      "has_biases" : 1,
      "C" : 512,
      "bottom" : "activation_40_output",
      "weights" : {

      },
      "Nx" : 1,
      "pad_mode" : 0,
      "pad_value" : 0,
      "Ny" : 1,
      "n_parallel" : 1
    },
    {
      "pad_r" : 0,
      "fused_relu" : 1,
      "fused_tanh" : 0,
      "pad_fill_mode" : 0,
      "pad_b" : 0,
      "pad_l" : 0,
      "top" : "activation_42_output",
      "blob_weights" : 179,
      "K" : 512,
      "blob_biases" : 177,
      "name" : "res5a_branch2b",
      "has_batch_norm" : 0,
      "type" : "convolution",
      "n_groups" : 1,
      "pad_t" : 0,
      "has_biases" : 1,
      "C" : 512,
      "bottom" : "activation_41_output",
      "weights" : {

      },
      "pad_mode" : 1,
      "Nx" : 3,
      "pad_value" : 0,
      "Ny" : 3,
      "n_parallel" : 1
    },
    {
      "pad_r" : 0,
      "fused_relu" : 0,
      "fused_tanh" : 0,
      "pad_fill_mode" : 0,
      "pad_b" : 0,
      "pad_l" : 0,
      "top" : "bn5a_branch2c_output",
      "blob_weights" : 183,
      "K" : 512,
      "blob_biases" : 181,
      "name" : "res5a_branch2c",
      "has_batch_norm" : 0,
      "type" : "convolution",
      "n_groups" : 1,
      "pad_t" : 0,
      "has_biases" : 1,
      "C" : 2048,
      "bottom" : "activation_42_output",
      "weights" : {

      },
      "pad_mode" : 0,
      "Nx" : 1,
      "pad_value" : 0,
      "Ny" : 1,
      "n_parallel" : 1
    },
    {
      "pad_r" : 0,
      "fused_relu" : 0,
      "fused_tanh" : 0,
      "pad_fill_mode" : 0,
      "pad_b" : 0,
      "pad_l" : 0,
      "top" : "bn5a_branch1_output",
      "blob_weights" : 187,
      "K" : 1024,
      "blob_biases" : 185,
      "stride_x" : 2,
      "name" : "res5a_branch1",
      "has_batch_norm" : 0,
      "type" : "convolution",
      "n_groups" : 1,
      "pad_t" : 0,
      "stride_y" : 2,
      "has_biases" : 1,
      "C" : 2048,
      "bottom" : "activation_40_output",
      "weights" : {

      },
      "Nx" : 1,
      "pad_mode" : 0,
      "pad_value" : 0,
      "Ny" : 1,
      "n_parallel" : 1
    },
    {
      "alpha" : 1,
      "bottom" : "bn5a_branch2c_output,bn5a_branch1_output",
      "operation" : 0,
      "weights" : {

      },
      "fused_relu" : 0,
      "top" : "merge_14_output",
      "type" : "elementwise",
      "name" : "merge_14",
      "beta" : 0
    },
    {
      "mode" : 0,
      "weights" : {

      },
      "top" : "activation_43_output",
      "type" : "activation",
      "name" : "activation_43",
      "bottom" : "merge_14_output"
    },
    {
      "pad_r" : 0,
      "fused_relu" : 1,
      "fused_tanh" : 0,
      "pad_fill_mode" : 0,
      "pad_b" : 0,
      "pad_l" : 0,
      "top" : "activation_44_output",
      "blob_weights" : 191,
      "K" : 2048,
      "blob_biases" : 189,
      "name" : "res5b_branch2a",
      "has_batch_norm" : 0,
      "type" : "convolution",
      "n_groups" : 1,
      "pad_t" : 0,
      "has_biases" : 1,
      "C" : 512,
      "bottom" : "activation_43_output",
      "weights" : {

      },
      "pad_mode" : 0,
      "Nx" : 1,
      "pad_value" : 0,
      "Ny" : 1,
      "n_parallel" : 1
    },
    {
      "pad_r" : 0,
      "fused_relu" : 1,
      "fused_tanh" : 0,
      "pad_fill_mode" : 0,
      "pad_b" : 0,
      "pad_l" : 0,
      "top" : "activation_45_output",
      "blob_weights" : 195,
      "K" : 512,
      "blob_biases" : 193,
      "name" : "res5b_branch2b",
      "has_batch_norm" : 0,
      "type" : "convolution",
      "n_groups" : 1,
      "pad_t" : 0,
      "has_biases" : 1,
      "C" : 512,
      "bottom" : "activation_44_output",
      "weights" : {

      },
      "pad_mode" : 1,
      "Nx" : 3,
      "pad_value" : 0,
      "Ny" : 3,
      "n_parallel" : 1
    },
    {
      "pad_r" : 0,
      "fused_relu" : 0,
      "fused_tanh" : 0,
      "pad_fill_mode" : 0,
      "pad_b" : 0,
      "pad_l" : 0,
      "top" : "bn5b_branch2c_output",
      "blob_weights" : 199,
      "K" : 512,
      "blob_biases" : 197,
      "name" : "res5b_branch2c",
      "has_batch_norm" : 0,
      "type" : "convolution",
      "n_groups" : 1,
      "pad_t" : 0,
      "has_biases" : 1,
      "C" : 2048,
      "bottom" : "activation_45_output",
      "weights" : {

      },
      "pad_mode" : 0,
      "Nx" : 1,
      "pad_value" : 0,
      "Ny" : 1,
      "n_parallel" : 1
    },
    {
      "alpha" : 1,
      "bottom" : "bn5b_branch2c_output,activation_43_output",
      "operation" : 0,
      "weights" : {

      },
      "fused_relu" : 0,
      "top" : "merge_15_output",
      "type" : "elementwise",
      "name" : "merge_15",
      "beta" : 0
    },
    {
      "mode" : 0,
      "weights" : {

      },
      "top" : "activation_46_output",
      "type" : "activation",
      "name" : "activation_46",
      "bottom" : "merge_15_output"
    },
    {
      "pad_r" : 0,
      "fused_relu" : 1,
      "fused_tanh" : 0,
      "pad_fill_mode" : 0,
      "pad_b" : 0,
      "pad_l" : 0,
      "top" : "activation_47_output",
      "blob_weights" : 203,
      "K" : 2048,
      "blob_biases" : 201,
      "name" : "res5c_branch2a",
      "has_batch_norm" : 0,
      "type" : "convolution",
      "n_groups" : 1,
      "pad_t" : 0,
      "has_biases" : 1,
      "C" : 512,
      "bottom" : "activation_46_output",
      "weights" : {

      },
      "pad_mode" : 0,
      "Nx" : 1,
      "pad_value" : 0,
      "Ny" : 1,
      "n_parallel" : 1
    },
    {
      "pad_r" : 0,
      "fused_relu" : 1,
      "fused_tanh" : 0,
      "pad_fill_mode" : 0,
      "pad_b" : 0,
      "pad_l" : 0,
      "top" : "activation_48_output",
      "blob_weights" : 207,
      "K" : 512,
      "blob_biases" : 205,
      "name" : "res5c_branch2b",
      "has_batch_norm" : 0,
      "type" : "convolution",
      "n_groups" : 1,
      "pad_t" : 0,
      "has_biases" : 1,
      "C" : 512,
      "bottom" : "activation_47_output",
      "weights" : {

      },
      "pad_mode" : 1,
      "Nx" : 3,
      "pad_value" : 0,
      "Ny" : 3,
      "n_parallel" : 1
    },
    {
      "pad_r" : 0,
      "fused_relu" : 0,
      "fused_tanh" : 0,
      "pad_fill_mode" : 0,
      "pad_b" : 0,
      "pad_l" : 0,
      "top" : "bn5c_branch2c_output",
      "blob_weights" : 211,
      "K" : 512,
      "blob_biases" : 209,
      "name" : "res5c_branch2c",
      "has_batch_norm" : 0,
      "type" : "convolution",
      "n_groups" : 1,
      "pad_t" : 0,
      "has_biases" : 1,
      "C" : 2048,
      "bottom" : "activation_48_output",
      "weights" : {

      },
      "pad_mode" : 0,
      "Nx" : 1,
      "pad_value" : 0,
      "Ny" : 1,
      "n_parallel" : 1
    },
    {
      "alpha" : 1,
      "bottom" : "bn5c_branch2c_output,activation_46_output",
      "operation" : 0,
      "weights" : {

      },
      "fused_relu" : 0,
      "top" : "merge_16_output",
      "type" : "elementwise",
      "name" : "merge_16",
      "beta" : 0
    },
    {
      "mode" : 0,
      "weights" : {

      },
      "top" : "activation_49_output",
      "type" : "activation",
      "name" : "activation_49",
      "bottom" : "merge_16_output"
    },
    {
      "pad_value" : 0,
      "average_count_exclude_padding" : 1,
      "top_shape_style" : 0,
      "avg_or_max" : 0,
      "stride_x" : 7,
      "pad_mode" : 2,
      "stride_y" : 7,
      "pad_t" : 0,
      "weights" : {

      },
      "size_y" : 7,
      "type" : "pool",
      "pad_r" : 0,
      "pad_b" : 0,
      "size_x" : 7,
      "pad_fill_mode" : 0,
      "bottom" : "activation_49_output",
      "pad_l" : 0,
      "name" : "avg_pool",
      "top" : "avg_pool_output"
    },
    {
      "mode" : 1,
      "weights" : {

      },
      "top" : "flatten_1_output",
      "type" : "flatten",
      "name" : "flatten_1",
      "bottom" : "avg_pool_output"
    },
    {
      "nB" : 2048,
      "top" : "fc1000_output",
      "has_biases" : 1,
      "weights" : {

      },
      "nC" : 1000,
      "blob_weights" : 215,
      "type" : "inner_product",
      "has_relu" : 0,
      "bottom" : "flatten_1_output",
      "blob_biases" : 213,
      "has_tanh" : 0,
      "name" : "fc1000",
      "has_prelu" : 0
    },
    {
      "C" : 2,
      "weights" : {

      },
      "top" : "classLabelProbs",
      "type" : "softmax",
      "name" : "fc1000__activation__",
      "bottom" : "fc1000_output"
    }
  ]
}